best_model_system2_Nu2_Ny1_ID35.pth (torch, 5624 bytes, 5 tensors)

fc1.weight f4 [32, 3]
00000000: 7027 783e 8817 a83e a586 afbe 372e 0d3f
00000010: 2724 83bd 1fba 883e c7d0 c2be 843b 8b3e
00000020: 9c46 f23e cf52 1fbf e960 f53e 9fd2 71be
00000030: 06a1 fe3e 704f 303e 754d d23e 80da 26be
00000040: 5f80 c73e 5ebf 603e fe37 c0be fad5 c33d
00000050: 4175 e7be e631 b6bd e1ae 29be 3534 053f
00000060: 7de7 0cbf f46a 9bbe c253 9abe a951 e6be
00000070: c00c 8e3b 0c3c 2ebf f8fa f33e 086d 0abf
00000080: b1f1 053f 9a33 2a3e 6599 a2bd a71a fa3e
00000090: a542 0a3e 1378 013f 5f10 2b3e bf09 82be
000000a0: 66ec 4a3e cb68 18be fddb 873e 0fcc 133f
000000b0: d971 e83e b456 b2be e091 743e 0ad9 983d
000000c0: 4b22 7d3e af16 b2be 6937 39bf dd8f a6be
000000d0: 8f77 07bf ca8c f73e b898 643e c12b a93e
000000e0: 785f 9f3e 76e7 7abd c634 ef3e c856 0ebf
000000f0: 5dce b33d acb3 b1be 6ee8 903e 871d 8dbe
00000100: 0354 573e 0734 58be 2ad4 d03e 5f0a cbbe
00000110: 1763 fabe b629 c3be c099 023f 0cf0 b83e
00000120: ace2 f43e 9b5b 02bf 127a 2ebf 94ec c5be
00000130: 9f82 80be 5311 cd3e 89e2 213e 3a5c f93e
00000140: 8600 e3be d81e b7be 862b ab3e ed5b 61be
00000150: a633 ad3e 2a44 0cbe 51f0 f13e 98d3 10bf
00000160: 6220 c4be 552e 473d d3e0 ed3d 7109 d1bd
00000170: ea7d d93e 0f58 9e3e 1e41 f9be 834b f0be
0.24233794 0.32830453 -0.34282413 0.55148643 -0.0640338 0.267045 -0.3804991 0.27193844
0.47319496 -0.6223573 0.479255 -0.23615502 0.49732226 0.17217803 0.4107472 -0.16294289
0.38965127 0.21948001 -0.3754272 0.09562297 -0.45206645 -0.08896236 -0.16570617 0.52032787
-0.55040723 -0.30355036 -0.30142027 -0.44984177 0.004335016 -0.68060374 0.4765241 -0.5407262
0.52321917 0.16621247 -0.07939414 0.4884846 0.13501985 0.50573844 0.16705464 -0.2539806
0.19816741 -0.14883725 0.26535025 0.57733244 0.4539936 -0.34831774 0.23883772 0.07463272
0.24720113 -0.3478293 -0.72350174 -0.32531634 -0.52916807 0.483496 0.22323883 0.33041194
0.31127524 -0.061255895 0.4671995 -0.5560117 0.08779595 -0.3470739 0.2830233 -0.2756159
0.21028142 -0.21113597 0.40786868 -0.3965635 -0.48903725 -0.3811776 0.51015854 0.3612064
0.47829187 -0.5092103 -0.68155015 -0.38657057 -0.25099656 0.4005228 0.15809073 0.48703176
-0.44336337 -0.3576572 0.33431643 -0.22007723 0.33828467 -0.13697878 0.4725366 -0.56572866
-0.38305956 0.04862817 0.116151474 -0.10206879 0.42478877 0.30926558 -0.48682493 -0.4693261

fc1.bias f4 [32]
00000000: 3b43 303f 4d04 8bbc 8527 7fbe ce07 cebe
00000010: d7a5 0fbe d573 da3d e2ed d13d b54b 91be
00000020: 2a21 3b3e 33ec 95be e579 d0be a287 34be
00000030: 9fec d6be 1f9d a9be e704 383f edb6 763d
00000040: 5167 a33e 73f6 efbe 9e0d 6abe 9f53 84bd
00000050: e367 af3d 83ff f0be 0bd4 e8bd 5420 38be
00000060: 3537 093e 4bf9 05be 0799 f03d 49ba dabe
00000070: 78de 61be 3703 6ebe d6c0 cabd 7290 9cbe
0.68852586 -0.016969824 -0.24917419 -0.4024033 -0.14028107 0.106666245 0.10250451 -0.28378072
0.1827437 -0.29281768 -0.40717998 -0.17629865 -0.41977403 -0.33127686 0.7188248 0.060233045
0.31914762 -0.46867713 -0.22856757 -0.06461262 0.08564737 -0.4706994 -0.11368569 -0.17981082
0.13399966 -0.13083379 0.11747938 -0.4272025 -0.22057521 -0.23243414 -0.09900062 -0.30578953

fc2.weight f4 [16, 32]
00000000: 10b1 693e db0d 20be 5cd9 913d 1282 f53d
00000010: 1659 79be 921d c43c c04a 233e 30a1 28be
00000020: c7b6 0dbc efe5 a43c 2c3f 51bc 57d8 06be
00000030: a6eb a03b 8aa0 2bbe 4d13 353d c5d3 5ebe
00000040: 15a3 f13d d790 19be 1d9e 833b fb1a 9b3e
00000050: 966b 88bc 7dc7 dabe e6eb 383e 7c2a 1ebe
00000060: de4d ed3d bf4b 97be d2d4 9e3e 359b e9bc
00000070: 373e c33c ca16 053d ffd0 dcbc 676c a83c
00000080: 009d 143e 3f29 c33c 894f 253a 2f86 1fbe
00000090: 8282 743d 0a71 2abd acc2 85bd 0da0 ed3d
000000a0: 7b9b 6e3c 057b 9bbd f47c dcbd a7ef 08bd
000000b0: 674b ab3d b806 39bd 2958 edbd 5f15 a7bd
000000c0: a627 e0bd 4091 e03c fca3 fa3d 440d 38be
000000d0: 9357 1d3c b606 bb3d 193e 183d 0599 9dbd
000000e0: 05e9 e93d b20e 7d3d ed32 493d c878 febc
000000f0: 3557 78bd 9b64 5ebc b198 5bbd 9cc6 57bd
00000100: bf05 723e 7e7f cb3d 3ead f5bd 03c7 cd3c
00000110: 186f 38bd 567e bcbd a1ad 603e 0594 85bc
00000120: 0784 80bc c6f4 c93d e8e7 2c3e d0e0 8bbc
00000130: 812d 3b3b e483 eabd 64fb 00be 390e 80be
00000140: 5007 ae3d d538 ad3b fd17 a03d 4127 7d3e
00000150: 9df5 5abe e06f a6be be5a e33d c58d cc3d
00000160: 9533 263e 7a75 a2bc b035 703e df55 633c
00000170: e4eb 16be 7a35 5e3e 4d36 24be 09d1 b83d
00000180: 52f3 febd 5110 4a3e 0be6 8a3e e70d e63d
00000190: d1d3 15bd 8eb6 50bc 422f 48be 29d5 7b3e
000001a0: 1c5d 283d f7b0 eb3d cc6b 3e3e bf27 263e
000001b0: eaf6 a13c 592f afbe d2eb b0bb 6c59 b53b
000001c0: 4903 003d 32cf 97ba 410b 4e3d 6f70 dbbd
000001d0: b27d 4c3c 7c87 eebe 9f33 10be cbfd 5e3e
000001e0: 6c1f b7bd ea2b fa3d b18a f8bd 0cff 3bbe
000001f0: 0523 833d 200a d8bd e83d 813d f6f8 c1bd
00000200: 09f0 5e3e 4bdd b9bd 4bff 733c 9f79 173e
00000210: a263 123e 172c e4bd 3f0e 8f3e c923 95bd
00000220: b00f 403e c943 993e 835b 903d d2ee 33bc
00000230: 6690 58b9 95e7 1cbe 427f 283e a44b 4ebe
00000240: 5923 703e a3a1 283e db79 3f3e 0ff0 d93d
00000250: d73f d9bd 8bc6 3abe 7f75 633e e20a 45be
00000260: ae62 a23d d77f 27bd 481c fb3d fa3a b1bc
00000270: 65a9 41bd cb83 423d 2105 2fbe bc60 873e
00000280: 44af 053e 4f02 0cbd 86e1 263e 4ef3 e3bd
00000290: c64d 1bbe f966 26bd d970 90bc 6ee9 ea3c
000002a0: 1b99 65bd c3e5 2abd 15ab c33c 867f 923d
000002b0: ddb5 19be 97d5 5b3c a81a 5e3d 401f 093e
000002c0: 7850 06be a536 883e 3fde dbbd 9edc dfbc
000002d0: 4833 a63d 0282 b73e a1d1 7d3e 6c3f 453e
000002e0: e2b8 a8bd 03d9 3f3e 5d78 b63d 1b91 06bd
000002f0: 5a09 2c3e c5be 873e 7723 d73d 6b87 273e
00000300: 3931 12be 682d 55bd 1d8d df3d fe98 b93d
00000310: d183 05be f87e 27be 7267 f7bd dcbc 47be
00000320: 1832 1bbe fc0f 33bd 1989 cb3d 8307 053c
00000330: 2eaf 09be d237 11be c400 873d f037 1dbe
00000340: 1f18 d8bc 9b57 853d adf9 bfbd 18e8 9dbc
00000350: 531a 1abd fc4d 2bbd 35fb c7bd 2bc2 2fbe
00000360: 5331 1abe 56a9 ebbd d7d5 2e3e b8de aebd
00000370: e341 0ebe bf3f d03c ae3a df3c 525d c63d
00000380: 8283 223e b592 493e 7f68 65bd d8ff 4abd
00000390: 6607 523e 0a1c d63d d8d3 86be 2d9e 983e
000003a0: 8d7f 9fbc ec5e 27bd 3d0b 6ebd e46f 063e
000003b0: f46b 163e 9889 54be 8952 173e c1e3 b9bc
000003c0: d6e1 80be be7c b83d 1f4b 843e 46c1 933c
000003d0: 09dc ee3c d1c5 a8be c2cd 25be e958 333d
000003e0: 06d4 e9bc e51c 533e 6bcf 353d ae3a aebe
000003f0: ea0f 5f3e 7690 1ebd 9c22 3e3e b414 ce3e
0.2282145 -0.15630285 0.07121536 0.119876996 -0.2435039 0.023939881 0.15946484 -0.16467738
-0.008649535 0.020129172 -0.012771409 -0.13168465 0.004910904 -0.1676046 0.04420786 -0.21760471
0.117986836 -0.14996658 0.0040166513 0.30294022 -0.016652863 -0.42730322 0.18058738 -0.15445894
0.115871176 -0.29549977 0.31021744 -0.028516391 0.023833377 0.032492436 -0.026955126 0.020559503
0.14513016 0.023823379 0.0006306102 -0.1557853 0.059694774 -0.04161171 -0.06531271 0.11602793
0.014563437 -0.075918235 -0.107660204 -0.033431675 0.08363991 -0.045172423 -0.11589081 -0.08158373
-0.10945062 0.02741301 0.12238309 -0.1797381 0.009603399 0.091321394 0.037168596 -0.07695202
0.11421398 0.061781593 0.049120832 -0.031063452 -0.060630042 -0.013573791 -0.053612415 -0.052679643
0.23635004 0.099364266 -0.11995934 0.02511931 -0.045027822 -0.09203784 0.21941234 -0.016305933
-0.015687956 0.0986114 0.1688534 -0.017074972 0.0028561058 -0.114509374 -0.12595898 -0.2501085
0.084974885 0.005286316 0.078170754 0.24722005 -0.21382757 -0.3250723 0.11101292 0.09987978
0.16230614 -0.019831408 0.2345798 0.013875454 -0.14738423 0.21700087 -0.16036339 0.09024245
-0.124487534 0.19732787 0.27128634 0.112331204 -0.036578957 -0.012738837 -0.19549277 0.24593033
0.04110442 0.11508363 0.18595809 0.162261 0.019771058 -0.3421581 -0.0053992057 0.0055343416
0.031253133 -0.0011582135 0.0503037 -0.107148044 0.01248114 -0.4658774 -0.14082192 0.21776502
-0.0894154 0.12215407 -0.12135828 -0.18359011 0.06403164 -0.10548806 0.06310636 -0.09471314
0.21771254 -0.090754114 0.01489241 0.14792489 0.1429582 -0.11141222 0.27940556 -0.07282216
0.18755984 0.29934528 0.070487045 -0.010982232 -0.00020653158 -0.15322717 0.16454795 -0.20146042
0.23450984 0.1646791 0.18698828 0.10641491 -0.106078796 -0.182398 0.2221279 -0.19242433
0.07928978 -0.040893402 0.122612536 -0.021634568 -0.047280688 0.04748897 -0.170918 0.2644099
0.1305514 -0.03418189 0.16296968 -0.11130391 -0.15166387 -0.040625546 -0.017631935 0.028675761
-0.056054216 -0.041723024 0.02388529 0.071532294 -0.15010782 0.013417623 0.05422464 0.13390827
-0.13116634 0.2660419 -0.107357495 -0.027326878 0.0811525 0.35841376 0.24786998 0.19262475
-0.082383886 0.18735127 0.08909676 -0.032853227 0.16800442 0.26512733 0.10504811 0.16360252
-0.1427659 -0.052045256 0.10915587 0.09062384 -0.13038565 -0.16357028 -0.120802775 -0.19505638
-0.15155828 -0.043716416 0.09938259 0.008119467 -0.13445732 -0.1418145 0.06591943 -0.1535337
-0.02637869 0.0651085 -0.09373794 -0.01927571 -0.03762276 -0.04182242 -0.09764711 -0.17163913
-0.15057878 -0.11506908 0.17073761 -0.08538574 -0.13892321 0.025421022 0.02724966 0.09685768
0.15870479 0.1968487 -0.05600786 -0.049560398 0.20510635 0.10454567 -0.263335 0.2980818
-0.01947 -0.04086201 -0.058116186 0.1312862 0.14689618 -0.20755613 0.14777578 -0.02269161
-0.251723 0.09008168 0.25838563 0.018036496 0.029157655 -0.32963422 -0.16191772 0.043785963
-0.028543483 0.20616491 0.044387262 -0.34029144 0.21783414 -0.038711987 0.1856789 0.4025017

fc2.bias f4 [16]
00000000: ce07 dc3d 89b4 45be e519 8c3e 9dd6 043e
00000010: d72f 5ebd 5816 803d 5fa3 103d e1c1 8f3d
00000020: 1f22 ce3d c4ae 883d c48b c03d 773f 223d
00000030: 23bc 0a3e 967c eb3d 597a 44bc 9103 e23d
0.10743676 -0.1930715 0.27363506 0.12972493 -0.054244842 0.06254262 0.035312053 0.07019401
0.10065102 0.06673959 0.09401658 0.039611306 0.13548331 0.11498372 -0.011992061 0.110358365

fc_out.weight f4 [1, 16]
00000000: bbad eabd 5bd3 e2bd 1f39 42be a6f7 773e
00000010: b810 b0be fac9 423e a350 68be 72ea 803e
00000020: ecca 5d3e 8753 0c3e aaf9 e93d 7a44 0ebe
00000030: fb57 753e 2554 8cbe c7eb e5bd c319 233e
-0.11458918 -0.11075469 -0.18967102 0.24215564 -0.34387755 0.1902236 -0.2268701 0.25178868
0.2165944 0.13703738 0.11424573 -0.13893309 0.23959343 -0.27407947 -0.112266116 0.15927796
